Numerical_study/Benchmarks/NNJoint/NN_model_NS_19_FM1_ideal_2/trained_model_ideal_loss2.pth (torch, 8316 bytes, 5 tensors)

weight f4 [40, 2]
0	0x3f336f3e	0.7009162
1	0x3e6205c5	0.22072513
2	0xbecbe76e	-0.39825004
3	0xbd21e370	-0.039523542
4	0x3ee87a65	0.4540588
5	0x3d44482d	0.047920395
6	0xbefeaa22	-0.49739176
7	0x3b970f57	0.004609983
8	0xbede4a33	-0.43415985
9	0x3e495ef9	0.19665135
10	0xbd02ccf4	-0.03193374
11	0xbf2140a1	-0.6298924
12	0xbf024794	-0.5089047
13	0xbeabfbba	-0.3359049
14	0xbdf1e57d	-0.118113495
15	0x3ea4d0a2	0.32190424
16	0x3f2d7452	0.67755616
17	0xbeeaaa4e	-0.45833057
18	0xbe92e404	-0.28689587
19	0xbf25db4e	-0.6478776
20	0x3f1e394b	0.6180617
21	0x3ee0a9ae	0.43879455
22	0xbe283abe	-0.16428658
23	0x3eeaf831	0.4589248
24	0xbf294d1d	-0.6613329
25	0xbf19bda1	-0.60054976
26	0x3e8187af	0.2529883
27	0xbe57b3a6	-0.21064624
28	0xbdd2395e	-0.10264848
29	0xbf21389f	-0.6297702
30	0x3f07b540	0.5301094
31	0x3f0b5b2c	0.5443599
32	0xbf22affa	-0.6354977
33	0x3f066c2f	0.52508825
34	0xbdee39b4	-0.116321
35	0x3e4e5c07	0.20152293
36	0xbf160d46	-0.58614004
37	0x3eb70365	0.35744777
38	0x3f2697f5	0.6507562
39	0x3d9f76ad	0.077863075
40	0x3eb765dc	0.358199
41	0xbde34bc2	-0.11098434
42	0xbe16f93a	-0.1474351
43	0x3ed91105	0.42395797
44	0x3f24d87d	0.64392835
45	0x3e5bfc39	0.21482934
46	0xbf05dae0	-0.522871
47	0xbd273408	-0.040821105
48	0x3da00127	0.0781272
49	0x3e8ff970	0.28119993
50	0x3ecf48f2	0.4048534
51	0xbf1eea84	-0.6207659
52	0xbf0d0b25	-0.5509513
53	0x3dbc1690	0.09183991
54	0x3d04992f	0.03237265
55	0x3eda5c3d	0.42648497
56	0x3dff77be	0.12474011
57	0xbeb8c61a	-0.3608864
58	0xbf1bb124	-0.6081717
59	0xbf026458	-0.5093436
60	0xbe5d05b2	-0.21584204
61	0xbef2b71a	-0.4740532
62	0x3e72f429	0.23725952
63	0xbd144afa	-0.036204316
64	0xbbce7f32	-0.006301784
65	0x3f0bc7c3	0.5460169
66	0x3ef601f5	0.48048368
67	0x3e3baff4	0.1832884
68	0xbf060a55	-0.52359515
69	0xbe16f9fe	-0.14743802
70	0xbf09d78d	-0.5384453
71	0x3f16aac9	0.5885435
72	0x3e9ea62c	0.30986154
73	0x3e8ad9be	0.2711925
74	0x3f150d0b	0.58223027
75	0x3ef8c702	0.4858933
76	0xbf2cf7a8	-0.67565393
77	0xbef35be1	-0.47531036
78	0xbe28da76	-0.16489586
79	0xbd328372	-0.043582387

bias f4 [40]
0	0x3ea85c0a	0.3288272
1	0x3e441fa6	0.19152698
2	0x3f06e6a9	0.5269571
3	0x3f1ab811	0.60437113
4	0xbf2ac85a	-0.6671196
5	0x3eec8888	0.46197915
6	0xbf182f58	-0.5944724
7	0xbf099161	-0.53737456
8	0xbe873e84	-0.26414883
9	0x3ee83d38	0.45359206
10	0xbeee67cb	-0.46563563
11	0xbebf2224	-0.37330735
12	0xbeedc32a	-0.4643796
13	0x3d943840	0.07237291
14	0x3e1ab0ab	0.15106456
15	0x3f1e79a7	0.61904377
16	0x3d35373d	0.044242132
17	0x3e724790	0.23660111
18	0xbf19eccb	-0.6012694
19	0x3f05b882	0.5223466
20	0x3f041ee1	0.5160962
21	0xbec68026	-0.38769644
22	0xbef899cb	-0.48554835
23	0xbdf873f6	-0.12131493
24	0x3dd976e9	0.106183834
25	0xbf346382	-0.70464337
26	0x3f1b4f58	0.60667944
27	0x3f3106ed	0.6915119
28	0x3f140461	0.5781918
29	0xbeb79ad8	-0.35860324
30	0x3eed138b	0.46303973
31	0x3ee25d1b	0.4421166
32	0x3d49216c	0.04910414
33	0x3d53babc	0.051691756
34	0x3f0cc8ca	0.5499388
35	0xbd811309	-0.06302459
36	0xbe95384c	-0.29144514
37	0x3ec6818d	0.38770714
38	0xbd76f82d	-0.060295273
39	0x3e92d732	0.28679806

weight f4 [20, 40]
0	0xbd9e6556	-0.07734172
1	0xbe09ba14	-0.1344989
2	0xbd385d37	-0.04501077
3	0xbe07eeb1	-0.13274647
4	0x3da0ed9f	0.078578226
5	0xbd1c60c8	-0.038178235
6	0x3d6003d8	0.054691166
7	0x3dea056e	0.11426817
8	0xbe1789ed	-0.14798708
9	0x3d02e88f	0.031960066
10	0x3d4f93ec	0.05067818
11	0xbddcd656	-0.10783069
12	0x3df2c50b	0.11853989
13	0x3e1f468a	0.15554252
14	0x3da1a495	0.0789272
15	0xbe0b7d1c	-0.13621944
16	0x3dc6a802	0.09700014
17	0xbd98a647	-0.0745359
18	0xbdb30a91	-0.0874225
19	0x3dd97523	0.10618045
20	0x3d7b2b4f	0.0613206
21	0xbd4fb3a3	-0.050708424
22	0xbe02cd8a	-0.1277372
23	0x3dbd88ce	0.09254609
24	0xbe153fbf	-0.14575098
25	0xbd386f3f	-0.045027968
26	0x3e116a1c	0.14200634
27	0x3e1e7a61	0.15476371
28	0x3d8e4612	0.069469586
29	0x3e0adde6	0.1356121
30	0x3e10a3db	0.14125006
31	0x3de264b0	0.11054361
32	0x3bf40976	0.007447417
33	0x3e145e62	0.14489129
34	0xbe149700	-0.14510727
35	0x3de1d617	0.110271625
36	0xbe08353b	-0.13301556
37	0xbd463bea	-0.048396982
38	0x3e126b4d	0.14298744
39	0x3dad81a5	0.08471993
40	0x3da6915b	0.08133193
41	0xbcb8b9c2	-0.022549514
42	0x3c8effba	0.017455924
43	0xbe098221	-0.13428546
44	0x3d579182	0.052629
45	0x3d985475	0.07437984
46	0xbca6e7ad	-0.020374143
47	0xbd22c19f	-0.039735433
48	0xbca9e60f	-0.020739583
49	0xbd1645b1	-0.036687557
50	0xbd8f5c5b	-0.07000037
51	0xbc3a3441	-0.011364997
52	0xba5f7037	-0.0008523496
53	0x3ca7533a	0.020425428
54	0xbe161933	-0.1465805
55	0x3c9714ed	0.018442595
56	0x3e0fbf6b	0.14037864
57	0xbd9e8292	-0.07739748
58	0xbd45082c	-0.048103496
59	0xbdcf7b8a	-0.10130985
60	0xbdb7d57e	-0.08976267
61	0x3dcfbc40	0.10143328
62	0xbe184f90	-0.148741
63	0xbe1449d5	-0.1448129
64	0x3dc0c372	0.09412278
65	0xbe053126	-0.1300703
66	0x3d869539	0.06571431
67	0x3cb9d462	0.02268428
68	0xbcc81896	-0.024425786
69	0xbd78e070	-0.060760915
70	0xbc91ccde	-0.017797884
71	0x3d599387	0.05311921
72	0xbde0cc44	-0.109764606
73	0xbd881359	-0.06644315
74	0xbdb79484	-0.08963874
75	0x3d87d1dd	0.06631825
76	0xbe15c16b	-0.14624564
77	0x3dac56e7	0.08415013
78	0x3e031e05	0.1280442
79	0x3db40b81	0.08791257
80	0xbdb3051b	-0.08741208
81	0xbdd60938	-0.10450977
82	0x3d945f99	0.07244796
83	0x3e16f229	0.14740814
84	0xbd24e4d3	-0.040257286
85	0xbd33e917	-0.043923464
86	0x3d4537fb	0.04814909
87	0xbdfacc20	-0.12245965
88	0x3d4969b3	0.04917307
89	0x3dc154ea	0.09440024
90	0x3dff9779	0.12480063
91	0xbbee459c	-0.0072714817
92	0xbd14e583	-0.036351692
93	0x3c674011	0.014114396
94	0x3bd9e3d4	0.0066494737
95	0xbca307df	-0.019901214
96	0x3e001f35	0.12511905
97	0x3d8b6359	0.068060584
98	0xbd9e58c5	-0.07731775
99	0xbdebc12a	-0.115114525
100	0x3d9d8f51	0.07693351
101	0x3c0b0e53	0.008487302
102	0xbb5c4e0e	-0.003361586
103	0x3e077ac3	0.13230424
104	0x3d8a12bb	0.06741854
105	0xbd9b759b	-0.07590791
106	0x3cbe9915	0.023266355
107	0x3ce8c717	0.028415246
108	0xbde7d57f	-0.11320018
109	0xbd806b16	-0.06270425
110	0x3e0ff0ec	0.14056748
111	0xbdef9f8f	-0.11700355
112	0x3d8d59d8	0.06901902
113	0xbd73547b	-0.05940674
114	0x3cd2df95	0.025741378
115	0x3d9ee7e5	0.07759074
116	0xbdeefb90	-0.116690755
117	0xbc2b01bf	-0.010437428
118	0xbdbd1fb8	-0.092345655
119	0xbc08a8a2	-0.008340986
120	0x3dc0b598	0.09409636
121	0xbc69ab8b	-0.01426209
122	0xbdf77f76	-0.12084858
123	0x3ce50b93	0.02795962
124	0x3ba199d6	0.0049316688
125	0xbe003844	-0.12521464
126	0x3e124548	0.14284241
127	0xbcccdd54	-0.025007881
128	0xbe18cfec	-0.14923066
129	0x3dc92e49	0.09823281
130	0xbc3d4b35	-0.011553575
131	0x3cee8d3a	0.029120076
132	0xbc3f845f	-0.011689275
133	0xbc825996	-0.015911859
134	0x3c3054b8	0.010762386
135	0xbe1c5130	-0.15265346
136	0xbda26619	-0.0792963
137	0x3d6490c6	0.05580213
138	0x3df37010	0.118866086
139	0x3bcba8c8	0.0062151887
140	0xbcb9bf93	-0.022674358
141	0xbde0e1e4	-0.10980585
142	0xbdbc9e26	-0.09209852
143	0xbd93e134	-0.072206885
144	0x3dd78c21	0.10524774
145	0x3e1884d9	0.14894427
146	0x3cf684e2	0.03009266
147	0x3d3c6879	0.04599807
148	0x3d73d39b	0.059527975
149	0x3d0718da	0.032982685
150	0xbe0f0d22	-0.13969854
151	0xbd45757b	-0.04820774
152	0x3da0ebb2	0.07857455
153	0x3d29ca55	0.041452724
154	0x3d825648	0.06364113
155	0xbe0006bb	-0.12502567
156	0xbccb576e	-0.024821963
157	0x3dbca091	0.09210313
158	0x3c0e4a70	0.0086847395
159	0x3d330dbd	0.043714274
160	0x3d8baed6	0.06820457
161	0x3dacb052	0.08432068
162	0x3dcbe5f3	0.09955969
163	0xbe0e0312	-0.13868359
164	0x3e110251	0.1416104
165	0xbddaebd0	-0.10689509
166	0xbe1c35ba	-0.1525487
167	0x3d0cf967	0.034417536
168	0xbd4ccfb8	-0.050002784
169	0xbdd19d1a	-0.10235043
170	0xbdab8d87	-0.083766036
171	0xbd37e939	-0.044900153
172	0x3de42ad9	0.11140985
173	0x3dde893a	0.10866018
174	0x3b06875c	0.0020527458
175	0x3db310a1	0.08743406
176	0x3bec6428	0.007214088
177	0x3e082b92	0.13297871
178	0xbd16f414	-0.036853865
179	0x39c4c162	0.00037528115
180	0xbddcb6ec	-0.10777077
181	0x3d825bd7	0.06365173
182	0x3da85857	0.082199745
183	0x3dc06800	0.093948364
184	0xbda01542	-0.078165546
185	0xbe0b56e6	-0.13607368
186	0xbde3aa6d	-0.111164905
187	0x3da5c850	0.08094847
188	0x3ce01cba	0.027357448
189	0xbd09bc53	-0.033626866
190	0x3dd9c142	0.10632564
191	0xbbd07625	-0.00636174
192	0xbe1f6c11	-0.15568568
193	0x3dedfae0	0.11620116
194	0x3e04c07f	0.12964056
195	0xbd8f0f8e	-0.06985389
196	0xbd374a93	-0.044748854
197	0x3cef16e6	0.029185724
198	0xbde293cd	-0.11063347
199	0xbd7b6c7b	-0.061382752
200	0x3d820044	0.06347707
201	0xbd6c1c5f	-0.057644244
202	0x3d7d4662	0.0618347
203	0xbd81c62e	-0.06336628
204	0x3e17144a	0.14753833
205	0x3da7bdd9	0.081905074
206	0xbcf0aa87	-0.029378189
207	0x3e1ae9d0	0.15128255
208	0xbddeb680	-0.10874653
209	0xbdbd4a37	-0.09242671
210	0x3d812637	0.06306117
211	0x3b53a4dc	0.0032294309
212	0x3e1550ca	0.145816
213	0x3e01a773	0.12661533
214	0x3e073ec3	0.13207535
215	0x3c3e2b7e	0.011607049
216	0xbdb5e99d	-0.08882449
217	0x3e074cfc	0.13212961
218	0xbddd5494	-0.108071476
219	0x3dbacdd3	0.09121289
220	0xbd3409b8	-0.04395458
221	0xbdfcec3b	-0.12349745
222	0x3d08aa9f	0.033365842
223	0xbd8cc18f	-0.06872856
224	0xbda7c89e	-0.081925616
225	0x3db8e102	0.09027292
226	0xbd02faaa	-0.031977333
227	0xbd79a120	-0.060944676
228	0xbdb797d2	-0.08964504
229	0xbcd2d7c3	-0.025737649
230	0x3cae2b08	0.021260753
231	0x3e0cbdf4	0.13744336
232	0x3e193497	0.14961468
233	0x3d13a29b	0.036043745
234	0xbb76d872	-0.0037665633
235	0xbb1b3b26	-0.0023686378
236	0xbdcdb399	-0.10044021
237	0xbdbaee77	-0.09127515
238	0x3e198347	0.14991485
239	0xbddb82b9	-0.10718293
240	0xbd3600bc	-0.044434294
241	0xbc2b4217	-0.010452769
242	0xbe1f2453	-0.155412
243	0x3cea7f76	0.028625231
244	0xbdd476e0	-0.10374236
245	0xbc5bf47f	-0.013424992
246	0x3d93ae36	0.072109625
247	0x3dc542e8	0.09631902
248	0x3d32041c	0.04346095
249	0x3d49ce18	0.049268812
250	0x3d8203b3	0.06348362
251	0xbdf8ecd2	-0.12154545
252	0xbd007b40	-0.03136754
253	0x3dc367d2	0.095412865
254	0x3d860797	0.065444164
255	0x3d94de33	0.07268944

bias f4 [20]
0	0xbdccda37	-0.10002559
1	0x3c830e21	0.015997948
2	0xbdcd8394	-0.10034862
3	0x3db37611	0.08762754
4	0xbe199b49	-0.15000643
5	0x3e18e87c	0.14932436
6	0xbcc4d52a	-0.024027426
7	0xbe1a4418	-0.15065038
8	0xbc85faa1	-0.01635486
9	0xbe129377	-0.14314066
10	0xbe00fa5f	-0.12595509
11	0xbaf1a288	-0.0018435279
12	0x3dac34e7	0.08408528
13	0xbda8c7fa	-0.082412675
14	0x3da6777c	0.081282586
15	0xbe051b88	-0.12998784
16	0xbcb053c4	-0.021524318
17	0xbdbe43c8	-0.09290272
18	0xbb923397	-0.0044617164
19	0xbdce11f9	-0.10062022

weight f4 [1, 20]
0	0x3e2486ed	0.16067095
1	0xbddfe074	-0.10931483
2	0x3e5b396b	0.21408622
3	0xbe0d5be8	-0.1380459
4	0xbe50f5c8	-0.20406258
5	0x3dac1e96	0.08404271
6	0xbe01ad65	-0.12663801
7	0xbe14dcf3	-0.1453741
8	0x3e671325	0.22565897
9	0x3de2c4b8	0.110726774
10	0x3e08953f	0.13338183
11	0x3e05cded	0.13066836
12	0xbdd48c50	-0.10378325
13	0xbc34f998	-0.011045836
14	0x3cea73d7	0.02861969
15	0xbd68fe34	-0.056883052
16	0xbe16f0da	-0.14740315
17	0x3e3479a2	0.17624524
18	0x3d92dcea	0.07171042
19	0xbe5a17fa	-0.21298209
